pid_model_micro.tflite (tflite, 4648 bytes, 6 tensors)

arith.constant f4 [3, 32]
000000 a9 ec 92 3d 63 ad 2d be 3b a8 b4 3e 87 02 a9 3e
       0.071740456 -0.16960673 0.352846 0.3300974
000010 c1 8a 90 be b8 e9 8c 3e e7 2f a7 be 64 ff 27 3e
       -0.2823086 0.27522063 -0.32653734 0.16406018
000020 b2 1c 4e bd 52 4f 20 3e 88 eb c1 3e ca f7 51 3e
       -0.050320335 0.15655258 0.3787501 0.2050468
000030 c8 75 54 3d e9 41 58 3e d8 a4 92 bd a1 01 c1 3e
       0.051870137 0.21118893 -0.07160348 0.37696555
000040 50 d7 8f bd 92 df a8 be 66 4d d1 be 2c 74 f1 3e
       -0.070234895 -0.3298307 -0.40879363 0.47158945
000050 93 fa 94 bd 73 67 6e bc 72 7c 7a bd 05 04 46 bd
       -0.07274356 -0.014551031 -0.061153837 -0.048343677
000060 7a 73 13 3e 1a 04 fc 3e b1 05 28 bd 4f 39 5c 3e
       0.1439952 0.4922188 -0.041021053 0.21506236
000070 a3 f1 ed bc fc 80 b8 3e a6 58 bd 3e e4 ae 06 be
       -0.029045885 0.36035907 0.36981696 -0.13152653
000080 ee 1a 2a bd 08 d1 72 be 4d 91 ed 3e 52 da 2b be
       -0.04152959 -0.23712552 0.46399918 -0.16782501
000090 ae b7 ab 3e 57 17 00 3e a6 70 8c 3e f6 63 2e be
       0.33538574 0.12508903 0.27429694 -0.1703032
0000a0 54 1c b3 be 5d 9e 70 be 49 90 69 be e0 cf 83 3e
       -0.3498255 -0.23497911 -0.22808947 0.25744534
0000b0 b5 41 27 bd 27 09 07 3f 60 b1 4d bd 0a e6 2f bb
       -0.040834147 0.5274834 -0.050217986 -0.0026839995
0000c0 e7 18 8c 3e dd dc c1 be 09 db dd 3e 94 e3 0e be
       0.2736275 -0.37863818 0.43331173 -0.13954002
0000d0 a8 86 be 3e 87 f4 7a 3d d8 50 85 bd 9a 0e da 3d
       0.3721211 0.061268356 -0.0650956 0.10647316
0000e0 6a c5 31 bd 43 04 0d be 45 85 a7 3e 56 1b f2 bd
       -0.04340116 -0.13771157 0.32718864 -0.1182162
0000f0 b1 b0 bc 3e 84 a7 09 3e bf 7d 99 be 45 fc 86 3e
       0.36853555 0.13442808 -0.2997875 0.2636434
000100 7c aa 9a 3e 9c 9a 74 bd 4f 32 96 be ae 42 3a 3e
       0.30208194 -0.05971776 -0.29335257 0.18189499
000110 cd 62 bf 3d 96 28 4c 3e 57 c6 59 3e 03 a9 cc 3d
       0.09345017 0.19937357 0.21267067 0.09993174
000120 60 78 b9 be 01 e9 66 be 44 4f 1a bb e2 e0 6e be
       -0.3622465 -0.22549821 -0.002354578 -0.23327973
000130 31 18 74 be 4d 37 c0 3e 55 04 a2 be 35 f7 3b 3c
       -0.23837353 0.3754219 -0.3164393 0.011472513
000140 5c 9d 9e bd 74 18 98 be fc 02 3e 3e 53 44 e4 3e
       -0.07744858 -0.29706156 0.18555826 0.44583377
000150 1e a1 c1 3e 3e e1 2c 3e 31 95 86 be f1 75 be be
       0.37818235 0.16882798 -0.262857 -0.37199357
000160 34 a5 37 be ce 55 c8 bd b3 b6 83 be 3d ed 79 3e
       -0.17934114 -0.09781991 -0.25725326 0.24406905
000170 3c 64 89 3e 9a 7d 73 3e 7b ef e1 3d 93 0c c3 3e
       0.26834285 0.23778382 0.110320054 0.3809553

arith.constant1 f4 [32, 16]
000000 1e e8 5a be 99 b4 7c be b4 f3 10 be 15 a4 8d be
       -0.21377608 -0.24678268 -0.14155465 -0.27664247
000010 e1 2d 4d 3d 15 3e 0d 3e 6e 69 db 3e 52 c9 68 3e
       0.05009258 0.13793214 0.42853874 0.22733048
000020 d9 7f c2 3e 4c a0 d5 bd 8d 6d ab 3e ea 19 8c be
       0.37988165 -0.10430965 0.33482018 -0.2736352
000030 c8 f3 3f bd f6 d9 81 be ec 2a 44 be 0e b6 6f 3e
       -0.046863347 -0.25361603 -0.19156998 0.23409292
000040 63 d9 cc 3d 86 f1 9e be ac bc ab be 98 8d 7d be
       0.10002401 -0.31043643 -0.33542383 -0.24761045
000050 18 4f d9 bd f9 17 89 be 3b a0 a8 3e 86 8b 0f 3e
       -0.10610789 -0.26776102 0.32934746 0.14018068
000060 12 7c 81 be 96 fb 09 be b6 9c f9 bd c4 d9 24 be
       -0.2528997 -0.13474879 -0.12188093 -0.16098696
000070 55 5b 4f 3d 07 e2 b4 3e 9c a3 b8 bd 23 a9 b4 be
       0.05062421 0.35328695 -0.09015581 -0.3528529
000080 ef 6d e7 3d c2 30 d4 3d f6 76 6d be da 99 37 3e
       0.11300265 0.10360862 -0.23189911 0.17929783
000090 eb 69 a5 3d 78 73 95 3c 47 c2 46 be 84 11 dd 3d
       0.08076843 0.018243536 -0.19410048 0.107943565
0000a0 ab 14 92 3e fd ab 21 3d e8 31 b3 3e c2 9b 71 3e
       0.28531393 0.03947066 0.34999013 0.23594573
0000b0 39 d4 8c 3e 73 e6 a5 3e aa c8 a5 bd 64 2e d0 bd
       0.27505663 0.3240238 -0.08094914 -0.10165098
0000c0 70 f9 94 be 38 87 42 bd e7 90 8a 3e 7c f9 89 3d
       -0.29096556 -0.047492236 0.27063677 0.067370385
0000d0 e4 75 99 be dd f3 84 3e 00 be 02 bb 4f 96 99 be
       -0.29972756 0.25967303 -0.0019949675 -0.2999749
0000e0 d0 b8 d1 3d a4 45 72 be a2 7d 8f be a6 aa 5c 3e
       0.10240328 -0.23659378 -0.28025538 0.21549472
0000f0 98 fa 00 be a5 de a5 be a8 84 98 be bc 59 ad be
       -0.12595594 -0.32396427 -0.2978871 -0.33857524
000100 8a a7 83 3e d3 ac 43 be ad d3 2b be 5e bf 24 3e
       0.2571376 -0.19108896 -0.16779967 0.16088626
000110 41 6e ac be db 3a 05 3d a5 bc 44 3e d8 8b 41 3d
       -0.33677867 0.032526832 0.19212587 0.047252506
000120 8e 03 73 be 9d b7 70 3e 12 6e be 3d 68 50 71 be
       -0.23731825 0.23507543 0.09298338 -0.23565829
000130 74 8b 58 bd d4 cb ad 3d df 88 a6 3d 87 1a 8e bc
       -0.052867368 0.08486143 0.08131575 -0.017346634
000140 2e d9 95 bd fb 73 20 be 88 d7 2a 3d 08 ec 3f be
       -0.07316814 -0.15669243 0.041709453 -0.18742383
000150 49 12 2f 3d 3e 29 d7 3e 5a 4f be 3e 83 e0 8a be
       0.042742047 0.42023653 0.37169915 -0.27124414
000160 69 e0 20 bd b4 1a ab 3e 6d e6 3f be 86 5f f0 bd
       -0.039276514 0.3341881 -0.18740244 -0.1173697
000170 fb 41 98 be 7e 42 8f be ac 75 c0 bd bb bd 14 3e
       -0.2973784 -0.27980417 -0.09397444 0.14525501
000180 09 5a af 3e 36 93 65 3e 8d 15 40 be 6c 2f 90 bd
       0.3424838 0.22419438 -0.18758221 -0.07040295
000190 ad 71 4e 3e ed c8 40 3e 0c f3 84 be 65 79 88 3e
       0.20160551 0.18826647 -0.2596668 0.26655117
0001a0 06 60 80 3e cc 08 fc 3d e4 57 fa 3b 00 f2 b2 bb
       0.2507326 0.12306365 0.007639872 -0.0054609776
0001b0 aa 13 68 be 11 40 8e 3e 1b e6 dc 3e 37 dd 56 3d
       -0.22663751 0.27783254 0.43144307 0.05245706
0001c0 17 56 3b 3d 1c cb d9 3b 88 d8 f3 bd cc ab 96 3d
       0.0457364 0.006646527 -0.119065344 0.073569864
0001d0 40 c8 ca 3e b4 8d a1 3c ea 63 9f 3e d5 98 b1 3e
       0.39605904 0.01972089 0.31130916 0.34686914
0001e0 d6 e5 6c 3e f3 ea 34 3e e7 92 61 3e 20 17 89 bc
       0.2313455 0.17667751 0.22028695 -0.01673466
0001f0 83 63 64 3e 3e 68 4c be a4 0b 9f bd e9 c0 4d be
       0.22303586 -0.1996164 -0.07765892 -0.2009312
000200 65 23 9f be c0 9f 37 3c e4 33 8b bd 80 e0 5f 3d
       -0.3108169 0.011207521 -0.06797007 0.05465746
000210 b6 72 d4 3d 41 60 66 3e e0 ad 26 3e 60 16 ae be
       0.10373442 0.22497655 0.16277266 -0.34001446
000220 88 2e 67 3e 3e 5f a0 be 6c ea 9f 3d 51 24 b3 be
       0.22576344 -0.31322664 0.07808384 -0.34988645
000230 8f 8e 91 3e 45 36 aa 3e cb 69 ab bd 91 5b 47 3d
       0.28429076 0.3324453 -0.08369788 0.04867131
000240 ca a4 48 be a0 d9 dd 3d 62 91 17 3e a2 5d 50 3e
       -0.19594112 0.10832524 0.14801553 0.20348218
000250 49 99 b3 3d bb 66 97 3c 9c df f2 bd e0 a0 9e be
       0.08769471 0.018481603 -0.11859056 -0.30982113
000260 12 ba a8 bd b1 92 e1 3d 50 da 70 3c 15 52 82 3e
       -0.08238615 0.11014307 0.014700487 0.2545325
000270 d7 7f 1e be e8 7b bf bd b4 04 a5 be ce 9f 90 3e
       -0.15478455 -0.09349805 -0.3223015 0.2824692
000280 4e 2b c2 3d 83 32 ad bd 74 b1 c6 bd e0 26 8f 3c
       0.09480916 -0.084569 -0.09701815 0.017474592
000290 d4 09 a2 3d aa a0 92 3d d8 50 84 3e fb 18 81 3e
       0.07912031 0.071595505 0.2584293 0.2521437
0002a0 ed d2 73 be 44 02 cc 3e ea 12 8f 3e 74 c6 a7 bd
       -0.2381093 0.3984548 0.27944118 -0.08192149
0002b0 e8 c8 9a 3d e8 59 b0 be 63 80 cd bc dc 53 8d bd
       0.07557851 -0.34443593 -0.025085634 -0.069007605
0002c0 1b 28 94 be a3 72 b1 3d d2 47 1a 3e 5e 9e 1c be
       -0.28936848 0.08664443 0.1506646 -0.15294787
0002d0 c6 22 42 3d be 25 1f be 06 ba a5 3e ea a3 96 be
       0.047396444 -0.15541741 0.32368487 -0.29421932
0002e0 fd fb 81 be d6 94 a2 3e 00 c5 bd 3d f3 49 89 3e
       -0.25387564 0.31754178 0.092660904 0.2681423
0002f0 b0 04 ca bd fb 26 88 3e 03 18 36 3e 78 0e 94 be
       -0.09864175 0.2659224 0.17782597 -0.2891729
000300 7f a7 dc bd 86 37 79 be 3f de b2 3e 64 dc b2 bd
       -0.10774135 -0.24337587 0.34935185 -0.087334424
000310 40 68 09 bd 70 5e e0 bc c4 82 5c be cb 53 b2 3e
       -0.033546686 -0.027388781 -0.21534258 0.34829554
000320 63 ee b7 be be 23 40 3e f1 1e 4e 3e 8b 93 9e 3e
       -0.35924062 0.18763635 0.2012899 0.3097194
000330 5f 50 ac be 32 bc fa bd a9 38 74 be 06 1e 3a be
       -0.33655068 -0.12242927 -0.23849739 -0.18175516
000340 b5 d7 36 be 82 43 d3 bd 36 60 fc bd 02 b1 87 be
       -0.17855723 -0.103156105 -0.12323038 -0.26502234
000350 7e 65 71 3d 3a 76 e9 bd ad f8 62 3e da 51 34 3e
       0.05893468 -0.11399503 0.22165175 0.17609349
000360 50 4d dc 3d 6c d9 6b 3c 2c d0 ed 3d 90 84 6f be
       0.10756934 0.014395099 0.11611971 -0.23390412
000370 b5 b6 a9 3e 10 f8 ee 3c 23 39 d2 3e 52 eb e4 bd
       0.33147207 0.02917102 0.41059217 -0.11177696
000380 19 0b 19 3e 9a b5 44 be a1 7b 68 be 15 c2 9f be
       0.1494564 -0.192099 -0.2270341 -0.3120276
000390 29 08 4f be 2b 79 f5 bd fb 01 6a be 72 a5 5a be
       -0.20217957 -0.119860016 -0.22852318 -0.21352175
0003a0 de 9e b1 3d 5b 26 94 3e 0b 0d 2f 3e c0 f4 9e 3d
       0.0867288 0.28935513 0.17094819 0.07761526
0003b0 68 4f 98 3e 3a ca 58 be 01 0c 3a 3e 96 75 94 3e
       0.29748082 -0.21170893 0.18168642 0.2899596
0003c0 e7 91 90 3e 41 2e 5f 3e a4 02 cf bd ca fa 33 3e
       0.28236315 0.21794988 -0.101079255 0.17576137
0003d0 78 1a bd 3d 9e 50 94 be 6a 4b 87 be c6 55 9d be
       0.09233564 -0.28967756 -0.26424724 -0.30729502
0003e0 c0 95 d5 3c 00 d9 6a 3b 89 e1 3f be 80 ae a0 bc
       0.026072383 0.0035834908 -0.18738379 -0.019614458
0003f0 cd 1a 58 be fc a2 c5 3d a9 b1 b3 be 29 04 aa 3e
       -0.21103974 0.096502274 -0.3509648 0.332063

arith.constant2 f4 [3]
000000 cf de 83 3d be 3d 95 3d e0 f6 84 3d
       0.06438982 0.07287167 0.064924

sequential_1/dense_1_2/BiasAdd/ReadVariableOp f4 [32]
000000 f3 02 9e 3d e1 1c b3 bc c0 56 b4 3d 00 00 00 00
       0.07715406 -0.021864356 0.08805609 0.0
000010 ae cf 9f 3d 92 92 a8 3d c9 a4 a1 3d 95 33 83 bc
       0.07803284 0.08231081 0.078927584 -0.016015807
000020 b4 67 30 bd 5c 97 8a bc 02 c1 c1 bc cc 02 4f bd
       -0.04306765 -0.016917877 -0.023651604 -0.050539777
000030 9e d0 ab bc f7 57 b5 3d ab d2 72 bd fc f5 1c bd
       -0.0209735 0.088546686 -0.05928294 -0.038320526
000040 00 00 00 00 00 00 00 00 18 22 b4 3d 5f fc 85 3d
       0.0 0.0 0.08795565 0.065422766
000050 73 ed 99 3d c8 8e c0 3d c1 ed 08 bc b4 69 08 bd
       0.07515993 0.09402233 -0.008357466 -0.03330393
000060 2c 02 30 bd d8 ba a9 bb d6 e6 1a 3d c2 89 7c 3d
       -0.04297082 -0.005179744 0.0378178 0.061654814
000070 05 62 ba 3d f0 28 a1 3d 03 25 bf bc 00 00 00 00
       0.09100727 0.07869136 -0.023333078 0.0

sequential_1/dense_1/BiasAdd/ReadVariableOp f4 [16]
000000 72 14 47 3d bd 4a 13 3d 00 00 00 00 00 00 00 00
       0.048603483 0.035959948 0.0 0.0
000010 c5 52 34 3d 94 bb aa 3d 11 54 bd 3d 00 00 00 00
       0.044024248 0.08336559 0.0924455 0.0
000020 cb a7 a1 bc ae d9 9b 3d 9f c8 23 3c 00 00 00 00
       -0.01973333 0.076098785 0.009996562 0.0
000030 53 d9 3b bc 00 00 00 00 21 46 bb 3d 2f e7 35 bd
       -0.011465388 0.0 0.091442354 -0.044409927

sequential_1/dense_1/MatMul f4 [16, 2]
000000 2b e3 8c 3e 4d bd cc bc f5 f4 53 3d 52 c2 d5 be
       0.27517065 -0.02499261 0.05174728 -0.41749817
000010 14 e0 44 be fe a7 19 be ce ad b8 be 92 e0 fe be
       -0.19226104 -0.1500549 -0.36070102 -0.4978071
000020 3a 9d 71 be e3 f9 0b 3e ec f8 9f be 6c c4 d4 3e
       -0.23595133 0.13669543 -0.312446 0.41556108
000030 b5 d3 11 be 65 bb 9e 3e 94 42 ff be d0 42 ca be
       -0.14240916 0.31002346 -0.49855483 -0.395041
000040 82 15 45 be 4e 65 a8 3e 34 98 ca be 23 ff 44 3e
       -0.19246486 0.3288979 -0.39569247 0.19237952
000050 b9 16 43 bc b1 2f e2 3e f2 5a 60 be 42 ff 12 be
       -0.011907273 0.4417701 -0.21909693 -0.14355186
000060 a7 ce 93 bb 6a ae 64 be 80 ee 0a bd f4 61 4b be
       -0.004510719 -0.22332159 -0.033918858 -0.19861585
000070 3d 8a 53 3e bd 81 fb bd 80 92 0a bf 95 f5 0c 3d
       0.20658202 -0.12280605 -0.5412979 0.034413893
